node {
  name: "x"
  op: "Placeholder"
  attr {
    key: "dtype"
    value {
      type: DT_FLOAT
    }
  }
  attr {
    key: "shape"
    value {
      shape {
        dim {
          size: -1
        }
        dim {
          size: 100
        }
        dim {
          size: 12
        }
      }
    }
  }
}
node {
  name: "sequential_1/lstm_1/zeros_1/packed/1"
  op: "Const"
  attr {
    key: "dtype"
    value {
      type: DT_INT32
    }
  }
  attr {
    key: "value"
    value {
      tensor {
        dtype: DT_INT32
        tensor_shape {
        }
        int_val: 32
      }
    }
  }
}
node {
  name: "sequential_1/lstm_1/zeros_1/Const"
  op: "Const"
  attr {
    key: "dtype"
    value {
      type: DT_FLOAT
    }
  }
  attr {
    key: "value"
    value {
      tensor {
        dtype: DT_FLOAT
        tensor_shape {
        }
      }
    }
  }
}
node {
  name: "sequential_1/lstm_1/strided_slice/stack"
  op: "Const"
  attr {
    key: "dtype"
    value {
      type: DT_INT32
    }
  }
  attr {
    key: "value"
    value {
      tensor {
        dtype: DT_INT32
        tensor_shape {
          dim {
            size: 1
          }
        }
      }
    }
  }
}
node {
  name: "sequential_1/lstm_1/strided_slice/stack_1"
  op: "Const"
  attr {
    key: "dtype"
    value {
      type: DT_INT32
    }
  }
  attr {
    key: "value"
    value {
      tensor {
        dtype: DT_INT32
        tensor_shape {
          dim {
            size: 1
          }
        }
        int_val: 1
      }
    }
  }
}
node {
  name: "sequential_1/lstm_1/strided_slice/stack_2"
  op: "Const"
  attr {
    key: "dtype"
    value {
      type: DT_INT32
    }
  }
  attr {
    key: "value"
    value {
      tensor {
        dtype: DT_INT32
        tensor_shape {
          dim {
            size: 1
          }
        }
        int_val: 1
      }
    }
  }
}
node {
  name: "sequential_1/lstm_1/PartitionedCall/transpose/perm"
  op: "Const"
  attr {
    key: "dtype"
    value {
      type: DT_INT32
    }
  }
  attr {
    key: "value"
    value {
      tensor {
        dtype: DT_INT32
        tensor_shape {
          dim {
            size: 3
          }
        }
        tensor_content: "\001\000\000\000\000\000\000\000\002\000\000\000"
      }
    }
  }
}
node {
  name: "sequential_1/lstm_1/PartitionedCall/TensorArrayUnstack/TensorListFromTensor/element_shape"
  op: "Const"
  attr {
    key: "dtype"
    value {
      type: DT_INT32
    }
  }
  attr {
    key: "value"
    value {
      tensor {
        dtype: DT_INT32
        tensor_shape {
          dim {
            size: 2
          }
        }
        tensor_content: "\377\377\377\377\014\000\000\000"
      }
    }
  }
}
node {
  name: "sequential_1/lstm_1/PartitionedCall/time"
  op: "Const"
  attr {
    key: "dtype"
    value {
      type: DT_INT32
    }
  }
  attr {
    key: "value"
    value {
      tensor {
        dtype: DT_INT32
        tensor_shape {
        }
      }
    }
  }
}
node {
  name: "sequential_1/lstm_1/PartitionedCall/while/loop_counter"
  op: "Const"
  attr {
    key: "dtype"
    value {
      type: DT_INT32
    }
  }
  attr {
    key: "value"
    value {
      tensor {
        dtype: DT_INT32
        tensor_shape {
        }
      }
    }
  }
}
node {
  name: "sequential_1/lstm_1/PartitionedCall/strided_slice/stack"
  op: "Const"
  attr {
    key: "dtype"
    value {
      type: DT_INT32
    }
  }
  attr {
    key: "value"
    value {
      tensor {
        dtype: DT_INT32
        tensor_shape {
          dim {
            size: 1
          }
        }
      }
    }
  }
}
node {
  name: "sequential_1/lstm_1/PartitionedCall/strided_slice/stack_1"
  op: "Const"
  attr {
    key: "dtype"
    value {
      type: DT_INT32
    }
  }
  attr {
    key: "value"
    value {
      tensor {
        dtype: DT_INT32
        tensor_shape {
          dim {
            size: 1
          }
        }
        int_val: 1
      }
    }
  }
}
node {
  name: "sequential_1/lstm_1/PartitionedCall/strided_slice/stack_2"
  op: "Const"
  attr {
    key: "dtype"
    value {
      type: DT_INT32
    }
  }
  attr {
    key: "value"
    value {
      tensor {
        dtype: DT_INT32
        tensor_shape {
          dim {
            size: 1
          }
        }
        int_val: 1
      }
    }
  }
}
node {
  name: "sequential_1/lstm_1/zeros/packed/1"
  op: "Const"
  attr {
    key: "dtype"
    value {
      type: DT_INT32
    }
  }
  attr {
    key: "value"
    value {
      tensor {
        dtype: DT_INT32
        tensor_shape {
        }
        int_val: 32
      }
    }
  }
}
node {
  name: "sequential_1/lstm_1/zeros/Const"
  op: "Const"
  attr {
    key: "dtype"
    value {
      type: DT_FLOAT
    }
  }
  attr {
    key: "value"
    value {
      tensor {
        dtype: DT_FLOAT
        tensor_shape {
        }
      }
    }
  }
}
node {
  name: "sequential_1/lstm_1/PartitionedCall/TensorArrayV2_1/element_shape"
  op: "Const"
  attr {
    key: "dtype"
    value {
      type: DT_INT32
    }
  }
  attr {
    key: "value"
    value {
      tensor {
        dtype: DT_INT32
        tensor_shape {
          dim {
            size: 2
          }
        }
        tensor_content: "\377\377\377\377 \000\000\000"
      }
    }
  }
}
node {
  name: "sequential_1/lstm_1/Read_2/ReadVariableOp/resource"
  op: "Const"
  attr {
    key: "dtype"
    value {
      type: DT_FLOAT
    }
  }
  attr {
    key: "value"
    value {
      tensor {
        dtype: DT_FLOAT
        tensor_shape {
          dim {
            size: 128
          }
        }
        tensor_content: "…"
      }
    }
  }
}
node {
  name: "sequential_1/lstm_1/Read_1/ReadVariableOp/resource"
  op: "Const"
  attr {
    key: "dtype"
    value {
      type: DT_FLOAT
    }
  }
  attr {
    key: "value"
    value {
      tensor {
        dtype: DT_FLOAT
        tensor_shape {
          dim {
            size: 32
          }
          dim {
            size: 128
          }
        }
        tensor_content: "…"
      }
    }
  }
}
node {
  name: "sequential_1/lstm_1/Read/ReadVariableOp/resource"
  op: "Const"
  attr {
    key: "dtype"
    value {
      type: DT_FLOAT
    }
  }
  attr {
    key: "value"
    value {
      tensor {
        dtype: DT_FLOAT
        tensor_shape {
          dim {
            size: 12
          }
          dim {
            size: 128
          }
        }
        tensor_content: "…"
      }
    }
  }
}
node {
  name: "sequential_1/lstm_1/PartitionedCall/TensorArrayV2Stack/TensorListStack/element_shape"
  op: "Const"
  attr {
    key: "dtype"
    value {
      type: DT_INT32
    }
  }
  attr {
    key: "value"
    value {
      tensor {
        dtype: DT_INT32
        tensor_shape {
          dim {
            size: 2
          }
        }
        tensor_content: "\377\377\377\377 \000\000\000"
      }
    }
  }
}
node {
  name: "sequential_1/lstm_1/PartitionedCall/transpose_1/perm"
  op: "Const"
  attr {
    key: "dtype"
    value {
      type: DT_INT32
    }
  }
  attr {
    key: "value"
    value {
      tensor {
        dtype: DT_INT32
        tensor_shape {
          dim {
            size: 3
          }
        }
        tensor_content: "\001\000\000\000\000\000\000\000\002\000\000\000"
      }
    }
  }
}
node {
  name: "sequential_1/flatten/Const"
  op: "Const"
  attr {
    key: "dtype"
    value {
      type: DT_INT32
    }
  }
  attr {
    key: "value"
    value {
      tensor {
        dtype: DT_INT32
        tensor_shape {
          dim {
            size: 2
          }
        }
        tensor_content: "\377\377\377\377\200\014\000\000"
      }
    }
  }
}
node {
  name: "sequential_1/dense_1/MatMul/ReadVariableOp/resource"
  op: "Const"
  attr {
    key: "dtype"
    value {
      type: DT_FLOAT
    }
  }
  attr {
    key: "value"
    value {
      tensor {
        dtype: DT_FLOAT
        tensor_shape {
          dim {
            size: 3200
          }
          dim {
            size: 64
          }
        }
        tensor_content: "…"
      }
    }
  }
}
node {
  name: "sequential_1/dense_1/BiasAdd/ReadVariableOp/resource"
  op: "Const"
  attr {
    key: "dtype"
    value {
      type: DT_FLOAT
    }
  }
  attr {
    key: "value"
    value {
      tensor {
        dtype: DT_FLOAT
        tensor_shape {
          dim {
            size: 64
          }
        }
        tensor_content: "…"
      }
    }
  }
}
node {
  name: "sequential_1/Output/MatMul/ReadVariableOp/resource"
  op: "Const"
  attr {
    key: "dtype"
    value {
      type: DT_FLOAT
    }
  }
  attr {
    key: "value"
    value {
      tensor {
        dtype: DT_FLOAT
        tensor_shape {
          dim {
            size: 64
          }
          dim {
            size: 7
          }
        }
        tensor_content: "…"
      }
    }
  }
}
node {
  name: "sequential_1/Output/BiasAdd/ReadVariableOp/resource"
  op: "Const"
  attr {
    key: "dtype"
    value {
      type: DT_FLOAT
    }
  }
  attr {
    key: "value"
    value {
      tensor {
        dtype: DT_FLOAT
        tensor_shape {
          dim {
            size: 7
          }
        }
        tensor_content: ".0\317;1\335\006\274\205\323\001\275\276/\221\275\365I\277<\007\010\353;\240\025\203;"
      }
    }
  }
}
node {
  name: "unused_control_flow_input"
  op: "Placeholder"
  attr {
    key: "dtype"
    value {
      type: DT_FLOAT
    }
  }
  attr {
    key: "shape"
    value {
      shape {
        dim {
          size: -1
        }
        dim {
          size: -1
        }
      }
    }
  }
}
node {
  name: "sequential_1/lstm_1/PartitionedCall/while/body/_12/while/Sigmoid_1"
  op: "Sigmoid"
  input: "sequential_1/lstm_1/PartitionedCall/while/body/_12/while/split:1"
  attr {
    key: "T"
    value {
      type: DT_FLOAT
    }
  }
}
node {
  name: "unused_control_flow_input_1"
  op: "Placeholder"
  attr {
    key: "dtype"
    value {
      type: DT_INT32
    }
  }
  attr {
    key: "shape"
    value {
      shape {
      }
    }
  }
}
node {
  name: "sequential_1/lstm_1/zeros_1/packed"
  op: "Pack"
  input: "sequential_1/lstm_1/strided_slice"
  input: "sequential_1/lstm_1/zeros_1/packed/1"
  attr {
    key: "N"
    value {
      i: 2
    }
  }
  attr {
    key: "T"
    value {
      type: DT_INT32
    }
  }
  attr {
    key: "axis"
    value {
      i: 0
    }
  }
}
node {
  name: "sequential_1/lstm_1/zeros_1"
  op: "Fill"
  input: "sequential_1/lstm_1/zeros_1/packed"
  input: "sequential_1/lstm_1/zeros_1/Const"
  attr {
    key: "T"
    value {
      type: DT_FLOAT
    }
  }
  attr {
    key: "index_type"
    value {
      type: DT_INT32
    }
  }
}
node {
  name: "Func/sequential_1/lstm_1/PartitionedCall/input/_2"
  op: "Identity"
  input: "sequential_1/lstm_1/zeros_1"
  attr {
    key: "T"
    value {
      type: DT_FLOAT
    }
  }
}
node {
  name: "sequential_1/lstm_1/PartitionedCall/while/enter/_18"
  op: "Enter"
  input: "Func/sequential_1/lstm_1/PartitionedCall/input/_2"
  attr {
    key: "T"
    value {
      type: DT_FLOAT
    }
  }
  attr {
    key: "frame_name"
    value {
      s: "sequential_1/lstm_1/PartitionedCall/while"
    }
  }
  attr {
    key: "is_constant"
    value {
      b: false
    }
  }
  attr {
    key: "parallel_iterations"
    value {
      i: 32
    }
  }
}
node {
  name: "unused_control_flow_input_2"
  op: "Placeholder"
  attr {
    key: "dtype"
    value {
      type: DT_FLOAT
    }
  }
  attr {
    key: "shape"
    value {
      shape {
        unknown_rank: true
      }
    }
  }
}
node {
  name: "sequential_1/lstm_1/PartitionedCall/while/body/_12/while/Identity_5"
  op: "Identity"
  input: "sequential_1/lstm_1/PartitionedCall/while/body/_12/while/add_1"
  attr {
    key: "T"
    value {
      type: DT_FLOAT
    }
  }
}
node {
  name: "Func/sequential_1/lstm_1/PartitionedCall/while/body/_12/output/_101"
  op: "Identity"
  input: "sequential_1/lstm_1/PartitionedCall/while/body/_12/while/Identity_5"
  attr {
    key: "T"
    value {
      type: DT_FLOAT
    }
  }
}
node {
  name: "sequential_1/lstm_1/PartitionedCall/while/next_iteration/_65"
  op: "NextIteration"
  input: "Func/sequential_1/lstm_1/PartitionedCall/while/body/_12/output/_101"
  input: "^Func/sequential_1/lstm_1/PartitionedCall/while/body/_12/output_control_node/_107"
  attr {
    key: "T"
    value {
      type: DT_FLOAT
    }
  }
}
node {
  name: "sequential_1/lstm_1/PartitionedCall/while/merge/_29"
  op: "Merge"
  input: "sequential_1/lstm_1/PartitionedCall/while/enter/_18"
  input: "sequential_1/lstm_1/PartitionedCall/while/next_iteration/_65"
  attr {
    key: "N"
    value {
      i: 2
    }
  }
  attr {
    key: "T"
    value {
      type: DT_FLOAT
    }
  }
}
node {
  name: "unused_control_flow_input_3"
  op: "Placeholder"
  attr {
    key: "dtype"
    value {
      type: DT_BOOL
    }
  }
  attr {
    key: "shape"
    value {
      shape {
      }
    }
  }
}
node {
  name: "sequential_1/lstm_1/PartitionedCall/while/Func/sequential_1/lstm_1/PartitionedCall/input/_2_switch/_41"
  op: "Switch"
  input: "sequential_1/lstm_1/PartitionedCall/while/merge/_29"
  input: "sequential_1/lstm_1/PartitionedCall/while/LoopCond/_35"
  attr {
    key: "T"
    value {
      type: DT_FLOAT
    }
  }
}
node {
  name: "Func/sequential_1/lstm_1/PartitionedCall/while/body/_12/input/_90"
  op: "Identity"
  input: "sequential_1/lstm_1/PartitionedCall/while/Func/sequential_1/lstm_1/PartitionedCall/input/_2_switch/_41:1"
  input: "^Func/sequential_1/lstm_1/PartitionedCall/while/body/_12/input_control_node/_84"
  attr {
    key: "T"
    value {
      type: DT_FLOAT
    }
  }
}
node {
  name: "sequential_1/lstm_1/PartitionedCall/while/body/_12/while/mul"
  op: "Mul"
  input: "sequential_1/lstm_1/PartitionedCall/while/body/_12/while/Sigmoid_1"
  input: "Func/sequential_1/lstm_1/PartitionedCall/while/body/_12/input/_90"
  attr {
    key: "T"
    value {
      type: DT_FLOAT
    }
  }
}
node {
  name: "unused_control_flow_input_4"
  op: "Placeholder"
  attr {
    key: "dtype"
    value {
      type: DT_FLOAT
    }
  }
  attr {
    key: "shape"
    value {
      shape {
        dim {
          size: -1
        }
        dim {
          size: -1
        }
      }
    }
  }
}
node {
  name: "sequential_1/lstm_1/PartitionedCall/while/body/_12/while/Sigmoid"
  op: "Sigmoid"
  input: "sequential_1/lstm_1/PartitionedCall/while/body/_12/while/split"
  attr {
    key: "T"
    value {
      type: DT_FLOAT
    }
  }
}
node {
  name: "unused_control_flow_input_5"
  op: "Placeholder"
  attr {
    key: "dtype"
    value {
      type: DT_FLOAT
    }
  }
  attr {
    key: "shape"
    value {
      shape {
        dim {
          size: -1
        }
        dim {
          size: -1
        }
      }
    }
  }
}
node {
  name: "sequential_1/lstm_1/PartitionedCall/while/body/_12/while/Tanh"
  op: "Tanh"
  input: "sequential_1/lstm_1/PartitionedCall/while/body/_12/while/split:2"
  attr {
    key: "T"
    value {
      type: DT_FLOAT
    }
  }
}
node {
  name: "sequential_1/lstm_1/PartitionedCall/while/body/_12/while/mul_1"
  op: "Mul"
  input: "sequential_1/lstm_1/PartitionedCall/while/body/_12/while/Sigmoid"
  input: "sequential_1/lstm_1/PartitionedCall/while/body/_12/while/Tanh"
  attr {
    key: "T"
    value {
      type: DT_FLOAT
    }
  }
}
node {
  name: "sequential_1/lstm_1/PartitionedCall/while/body/_12/while/add_1"
  op: "AddV2"
  input: "sequential_1/lstm_1/PartitionedCall/while/body/_12/while/mul"
  input: "sequential_1/lstm_1/PartitionedCall/while/body/_12/while/mul_1"
  attr {
    key: "T"
    value {
      type: DT_FLOAT
    }
  }
}
node {
  name: "sequential_1/lstm_1/Shape"
  op: "Shape"
  input: "x"
  attr {
    key: "T"
    value {
      type: DT_FLOAT
    }
  }
  attr {
    key: "out_type"
    value {
      type: DT_INT32
    }
  }
}
node {
  name: "sequential_1/lstm_1/strided_slice"
  op: "StridedSlice"
  input: "sequential_1/lstm_1/Shape"
  input: "sequential_1/lstm_1/strided_slice/stack"
  input: "sequential_1/lstm_1/strided_slice/stack_1"
  input: "sequential_1/lstm_1/strided_slice/stack_2"
  attr {
    key: "Index"
    value {
      type: DT_INT32
    }
  }
  attr {
    key: "T"
    value {
      type: DT_INT32
    }
  }
  attr {
    key: "begin_mask"
    value {
      i: 0
    }
  }
  attr {
    key: "ellipsis_mask"
    value {
      i: 0
    }
  }
  attr {
    key: "end_mask"
    value {
      i: 0
    }
  }
  attr {
    key: "new_axis_mask"
    value {
      i: 0
    }
  }
  attr {
    key: "shrink_axis_mask"
    value {
      i: 1
    }
  }
}
node {
  name: "Func/sequential_1/lstm_1/PartitionedCall/input/_0"
  op: "Identity"
  input: "x"
  attr {
    key: "T"
    value {
      type: DT_FLOAT
    }
  }
}
node {
  name: "sequential_1/lstm_1/PartitionedCall/transpose"
  op: "Transpose"
  input: "Func/sequential_1/lstm_1/PartitionedCall/input/_0"
  input: "sequential_1/lstm_1/PartitionedCall/transpose/perm"
  attr {
    key: "T"
    value {
      type: DT_FLOAT
    }
  }
  attr {
    key: "Tperm"
    value {
      type: DT_INT32
    }
  }
}
node {
  name: "sequential_1/lstm_1/PartitionedCall/TensorArrayUnstack/TensorListFromTensor"
  op: "TensorListFromTensor"
  input: "sequential_1/lstm_1/PartitionedCall/transpose"
  input: "sequential_1/lstm_1/PartitionedCall/TensorArrayUnstack/TensorListFromTensor/element_shape"
  attr {
    key: "element_dtype"
    value {
      type: DT_FLOAT
    }
  }
  attr {
    key: "shape_type"
    value {
      type: DT_INT32
    }
  }
  experimental_type {
    type_id: TFT_PRODUCT
    args {
      type_id: TFT_ARRAY
      args {
        type_id: TFT_TENSOR
        args {
          type_id: TFT_FLOAT
        }
      }
    }
  }
}
node {
  name: "sequential_1/lstm_1/PartitionedCall/while/enter/_20"
  op: "Enter"
  input: "sequential_1/lstm_1/PartitionedCall/TensorArrayUnstack/TensorListFromTensor"
  attr {
    key: "T"
    value {
      type: DT_VARIANT
    }
  }
  attr {
    key: "frame_name"
    value {
      s: "sequential_1/lstm_1/PartitionedCall/while"
    }
  }
  attr {
    key: "is_constant"
    value {
      b: false
    }
  }
  attr {
    key: "parallel_iterations"
    value {
      i: 32
    }
  }
}
node {
  name: "unused_control_flow_input_6"
  op: "Placeholder"
  attr {
    key: "dtype"
    value {
      type: DT_VARIANT
    }
  }
  attr {
    key: "shape"
    value {
      shape {
        unknown_rank: true
      }
    }
  }
}
node {
  name: "Func/sequential_1/lstm_1/PartitionedCall/while/body/_12/output/_103"
  op: "Identity"
  input: "Func/sequential_1/lstm_1/PartitionedCall/while/body/_12/input/_92"
  attr {
    key: "T"
    value {
      type: DT_VARIANT
    }
  }
}
node {
  name: "sequential_1/lstm_1/PartitionedCall/while/next_iteration/_67"
  op: "NextIteration"
  input: "Func/sequential_1/lstm_1/PartitionedCall/while/body/_12/output/_103"
  input: "^Func/sequential_1/lstm_1/PartitionedCall/while/body/_12/output_control_node/_107"
  attr {
    key: "T"
    value {
      type: DT_VARIANT
    }
  }
}
node {
  name: "sequential_1/lstm_1/PartitionedCall/while/merge/_31"
  op: "Merge"
  input: "sequential_1/lstm_1/PartitionedCall/while/enter/_20"
  input: "sequential_1/lstm_1/PartitionedCall/while/next_iteration/_67"
  attr {
    key: "N"
    value {
      i: 2
    }
  }
  attr {
    key: "T"
    value {
      type: DT_VARIANT
    }
  }
}
node {
  name: "unused_control_flow_input_7"
  op: "Placeholder"
  attr {
    key: "dtype"
    value {
      type: DT_BOOL
    }
  }
  attr {
    key: "shape"
    value {
      shape {
      }
    }
  }
}
node {
  name: "sequential_1/lstm_1/PartitionedCall/while/sequential_1/lstm_1/PartitionedCall/TensorArrayUnstack/TensorListFromTensor_switch/_43"
  op: "Switch"
  input: "sequential_1/lstm_1/PartitionedCall/while/merge/_31"
  input: "sequential_1/lstm_1/PartitionedCall/while/LoopCond/_35"
  attr {
    key: "T"
    value {
      type: DT_VARIANT
    }
  }
}
node {
  name: "Func/sequential_1/lstm_1/PartitionedCall/while/body/_12/input/_92"
  op: "Identity"
  input: "sequential_1/lstm_1/PartitionedCall/while/sequential_1/lstm_1/PartitionedCall/TensorArrayUnstack/TensorListFromTensor_switch/_43:1"
  input: "^Func/sequential_1/lstm_1/PartitionedCall/while/body/_12/input_control_node/_84"
  attr {
    key: "T"
    value {
      type: DT_VARIANT
    }
  }
}
node {
  name: "sequential_1/lstm_1/PartitionedCall/while/enter/_15"
  op: "Enter"
  input: "sequential_1/lstm_1/PartitionedCall/time"
  attr {
    key: "T"
    value {
      type: DT_INT32
    }
  }
  attr {
    key: "frame_name"
    value {
      s: "sequential_1/lstm_1/PartitionedCall/while"
    }
  }
  attr {
    key: "is_constant"
    value {
      b: false
    }
  }
  attr {
    key: "parallel_iterations"
    value {
      i: 32
    }
  }
}
node {
  name: "sequential_1/lstm_1/PartitionedCall/while/body/_12/while/add_2/y"
  op: "Const"
  input: "^Func/sequential_1/lstm_1/PartitionedCall/while/body/_12/input_control_node/_84"
  attr {
    key: "dtype"
    value {
      type: DT_INT32
    }
  }
  attr {
    key: "value"
    value {
      tensor {
        dtype: DT_INT32
        tensor_shape {
        }
        int_val: 1
      }
    }
  }
}
node {
  name: "unused_control_flow_input_8"
  op: "Placeholder"
  attr {
    key: "dtype"
    value {
      type: DT_INT32
    }
  }
  attr {
    key: "shape"
    value {
      shape {
        unknown_rank: true
      }
    }
  }
}
node {
  name: "sequential_1/lstm_1/PartitionedCall/while/body/_12/while/add_2"
  op: "AddV2"
  input: "Func/sequential_1/lstm_1/PartitionedCall/while/body/_12/input/_87"
  input: "sequential_1/lstm_1/PartitionedCall/while/body/_12/while/add_2/y"
  attr {
    key: "T"
    value {
      type: DT_INT32
    }
  }
}
node {
  name: "sequential_1/lstm_1/PartitionedCall/while/body/_12/while/Identity_2"
  op: "Identity"
  input: "sequential_1/lstm_1/PartitionedCall/while/body/_12/while/add_2"
  attr {
    key: "T"
    value {
      type: DT_INT32
    }
  }
}
node {
  name: "Func/sequential_1/lstm_1/PartitionedCall/while/body/_12/output/_98"
  op: "Identity"
  input: "sequential_1/lstm_1/PartitionedCall/while/body/_12/while/Identity_2"
  attr {
    key: "T"
    value {
      type: DT_INT32
    }
  }
}
node {
  name: "sequential_1/lstm_1/PartitionedCall/while/next_iteration/_62"
  op: "NextIteration"
  input: "Func/sequential_1/lstm_1/PartitionedCall/while/body/_12/output/_98"
  input: "^Func/sequential_1/lstm_1/PartitionedCall/while/body/_12/output_control_node/_107"
  attr {
    key: "T"
    value {
      type: DT_INT32
    }
  }
}
node {
  name: "sequential_1/lstm_1/PartitionedCall/while/merge/_26"
  op: "Merge"
  input: "sequential_1/lstm_1/PartitionedCall/while/enter/_15"
  input: "sequential_1/lstm_1/PartitionedCall/while/next_iteration/_62"
  attr {
    key: "N"
    value {
      i: 2
    }
  }
  attr {
    key: "T"
    value {
      type: DT_INT32
    }
  }
}
node {
  name: "unused_control_flow_input_9"
  op: "Placeholder"
  attr {
    key: "dtype"
    value {
      type: DT_BOOL
    }
  }
  attr {
    key: "shape"
    value {
      shape {
      }
    }
  }
}
node {
  name: "sequential_1/lstm_1/PartitionedCall/while/sequential_1/lstm_1/PartitionedCall/time_switch/_38"
  op: "Switch"
  input: "sequential_1/lstm_1/PartitionedCall/while/merge/_26"
  input: "sequential_1/lstm_1/PartitionedCall/while/LoopCond/_35"
  attr {
    key: "T"
    value {
      type: DT_INT32
    }
  }
}
node {
  name: "Func/sequential_1/lstm_1/PartitionedCall/while/body/_12/input/_87"
  op: "Identity"
  input: "sequential_1/lstm_1/PartitionedCall/while/sequential_1/lstm_1/PartitionedCall/time_switch/_38:1"
  input: "^Func/sequential_1/lstm_1/PartitionedCall/while/body/_12/input_control_node/_84"
  attr {
    key: "T"
    value {
      type: DT_INT32
    }
  }
}
node {
  name: "sequential_1/lstm_1/PartitionedCall/while/enter/_13"
  op: "Enter"
  input: "sequential_1/lstm_1/PartitionedCall/while/loop_counter"
  attr {
    key: "T"
    value {
      type: DT_INT32
    }
  }
  attr {
    key: "frame_name"
    value {
      s: "sequential_1/lstm_1/PartitionedCall/while"
    }
  }
  attr {
    key: "is_constant"
    value {
      b: false
    }
  }
  attr {
    key: "parallel_iterations"
    value {
      i: 32
    }
  }
}
node {
  name: "unused_control_flow_input_10"
  op: "Placeholder"
  attr {
    key: "dtype"
    value {
      type: DT_INT32
    }
  }
  attr {
    key: "shape"
    value {
      shape {
        unknown_rank: true
      }
    }
  }
}
node {
  name: "unused_control_flow_input_11"
  op: "Placeholder"
  attr {
    key: "dtype"
    value {
      type: DT_BOOL
    }
  }
  attr {
    key: "shape"
    value {
      shape {
      }
    }
  }
}
node {
  name: "sequential_1/lstm_1/PartitionedCall/while/sequential_1/lstm_1/PartitionedCall/while/loop_counter_switch/_36"
  op: "Switch"
  input: "sequential_1/lstm_1/PartitionedCall/while/merge/_24"
  input: "sequential_1/lstm_1/PartitionedCall/while/LoopCond/_35"
  attr {
    key: "T"
    value {
      type: DT_INT32
    }
  }
}
node {
  name: "Func/sequential_1/lstm_1/PartitionedCall/while/body/_12/input/_85"
  op: "Identity"
  input: "sequential_1/lstm_1/PartitionedCall/while/sequential_1/lstm_1/PartitionedCall/while/loop_counter_switch/_36:1"
  input: "^Func/sequential_1/lstm_1/PartitionedCall/while/body/_12/input_control_node/_84"
  attr {
    key: "T"
    value {
      type: DT_INT32
    }
  }
}
node {
  name: "sequential_1/lstm_1/PartitionedCall/while/body/_12/while/add_3/y"
  op: "Const"
  input: "^Func/sequential_1/lstm_1/PartitionedCall/while/body/_12/input_control_node/_84"
  attr {
    key: "dtype"
    value {
      type: DT_INT32
    }
  }
  attr {
    key: "value"
    value {
      tensor {
        dtype: DT_INT32
        tensor_shape {
        }
        int_val: 1
      }
    }
  }
}
node {
  name: "sequential_1/lstm_1/PartitionedCall/while/body/_12/while/add_3"
  op: "AddV2"
  input: "Func/sequential_1/lstm_1/PartitionedCall/while/body/_12/input/_85"
  input: "sequential_1/lstm_1/PartitionedCall/while/body/_12/while/add_3/y"
  attr {
    key: "T"
    value {
      type: DT_INT32
    }
  }
}
node {
  name: "sequential_1/lstm_1/PartitionedCall/while/body/_12/while/Identity"
  op: "Identity"
  input: "sequential_1/lstm_1/PartitionedCall/while/body/_12/while/add_3"
  attr {
    key: "T"
    value {
      type: DT_INT32
    }
  }
}
node {
  name: "Func/sequential_1/lstm_1/PartitionedCall/while/body/_12/output/_96"
  op: "Identity"
  input: "sequential_1/lstm_1/PartitionedCall/while/body/_12/while/Identity"
  attr {
    key: "T"
    value {
      type: DT_INT32
    }
  }
}
node {
  name: "sequential_1/lstm_1/PartitionedCall/while/next_iteration/_60"
  op: "NextIteration"
  input: "Func/sequential_1/lstm_1/PartitionedCall/while/body/_12/output/_96"
  input: "^Func/sequential_1/lstm_1/PartitionedCall/while/body/_12/output_control_node/_107"
  attr {
    key: "T"
    value {
      type: DT_INT32
    }
  }
}
node {
  name: "sequential_1/lstm_1/PartitionedCall/while/merge/_24"
  op: "Merge"
  input: "sequential_1/lstm_1/PartitionedCall/while/enter/_13"
  input: "sequential_1/lstm_1/PartitionedCall/while/next_iteration/_60"
  attr {
    key: "N"
    value {
      i: 2
    }
  }
  attr {
    key: "T"
    value {
      type: DT_INT32
    }
  }
}
node {
  name: "sequential_1/lstm_1/PartitionedCall/Shape"
  op: "Shape"
  input: "sequential_1/lstm_1/PartitionedCall/transpose"
  attr {
    key: "T"
    value {
      type: DT_FLOAT
    }
  }
  attr {
    key: "out_type"
    value {
      type: DT_INT32
    }
  }
}
node {
  name: "sequential_1/lstm_1/PartitionedCall/strided_slice"
  op: "StridedSlice"
  input: "sequential_1/lstm_1/PartitionedCall/Shape"
  input: "sequential_1/lstm_1/PartitionedCall/strided_slice/stack"
  input: "sequential_1/lstm_1/PartitionedCall/strided_slice/stack_1"
  input: "sequential_1/lstm_1/PartitionedCall/strided_slice/stack_2"
  attr {
    key: "Index"
    value {
      type: DT_INT32
    }
  }
  attr {
    key: "T"
    value {
      type: DT_INT32
    }
  }
  attr {
    key: "begin_mask"
    value {
      i: 0
    }
  }
  attr {
    key: "ellipsis_mask"
    value {
      i: 0
    }
  }
  attr {
    key: "end_mask"
    value {
      i: 0
    }
  }
  attr {
    key: "new_axis_mask"
    value {
      i: 0
    }
  }
  attr {
    key: "shrink_axis_mask"
    value {
      i: 1
    }
  }
}
node {
  name: "sequential_1/lstm_1/PartitionedCall/while/enter/_19"
  op: "Enter"
  input: "sequential_1/lstm_1/PartitionedCall/strided_slice"
  attr {
    key: "T"
    value {
      type: DT_INT32
    }
  }
  attr {
    key: "frame_name"
    value {
      s: "sequential_1/lstm_1/PartitionedCall/while"
    }
  }
  attr {
    key: "is_constant"
    value {
      b: false
    }
  }
  attr {
    key: "parallel_iterations"
    value {
      i: 32
    }
  }
}
node {
  name: "unused_control_flow_input_12"
  op: "Placeholder"
  attr {
    key: "dtype"
    value {
      type: DT_INT32
    }
  }
  attr {
    key: "shape"
    value {
      shape {
        unknown_rank: true
      }
    }
  }
}
node {
  name: "unused_control_flow_input_13"
  op: "Placeholder"
  attr {
    key: "dtype"
    value {
      type: DT_BOOL
    }
  }
  attr {
    key: "shape"
    value {
      shape {
      }
    }
  }
}
node {
  name: "sequential_1/lstm_1/PartitionedCall/while/sequential_1/lstm_1/PartitionedCall/strided_slice_switch/_42"
  op: "Switch"
  input: "sequential_1/lstm_1/PartitionedCall/while/merge/_30"
  input: "sequential_1/lstm_1/PartitionedCall/while/LoopCond/_35"
  attr {
    key: "T"
    value {
      type: DT_INT32
    }
  }
}
node {
  name: "Func/sequential_1/lstm_1/PartitionedCall/while/body/_12/input/_91"
  op: "Identity"
  input: "sequential_1/lstm_1/PartitionedCall/while/sequential_1/lstm_1/PartitionedCall/strided_slice_switch/_42:1"
  input: "^Func/sequential_1/lstm_1/PartitionedCall/while/body/_12/input_control_node/_84"
  attr {
    key: "T"
    value {
      type: DT_INT32
    }
  }
}
node {
  name: "Func/sequential_1/lstm_1/PartitionedCall/while/body/_12/output/_102"
  op: "Identity"
  input: "Func/sequential_1/lstm_1/PartitionedCall/while/body/_12/input/_91"
  attr {
    key: "T"
    value {
      type: DT_INT32
    }
  }
}
node {
  name: "sequential_1/lstm_1/PartitionedCall/while/next_iteration/_66"
  op: "NextIteration"
  input: "Func/sequential_1/lstm_1/PartitionedCall/while/body/_12/output/_102"
  input: "^Func/sequential_1/lstm_1/PartitionedCall/while/body/_12/output_control_node/_107"
  attr {
    key: "T"
    value {
      type: DT_INT32
    }
  }
}
node {
  name: "sequential_1/lstm_1/PartitionedCall/while/merge/_30"
  op: "Merge"
  input: "sequential_1/lstm_1/PartitionedCall/while/enter/_19"
  input: "sequential_1/lstm_1/PartitionedCall/while/next_iteration/_66"
  attr {
    key: "N"
    value {
      i: 2
    }
  }
  attr {
    key: "T"
    value {
      type: DT_INT32
    }
  }
}
node {
  name: "Func/sequential_1/lstm_1/PartitionedCall/while/cond/_11/input_control_node/_71"
  op: "NoOp"
  input: "^sequential_1/lstm_1/PartitionedCall/while/merge/_24"
}
node {
  name: "Func/sequential_1/lstm_1/PartitionedCall/while/cond/_11/input/_74"
  op: "Identity"
  input: "sequential_1/lstm_1/PartitionedCall/while/merge/_26"
  input: "^Func/sequential_1/lstm_1/PartitionedCall/while/cond/_11/input_control_node/_71"
  attr {
    key: "T"
    value {
      type: DT_INT32
    }
  }
}
node {
  name: "Func/sequential_1/lstm_1/PartitionedCall/while/cond/_11/input/_78"
  op: "Identity"
  input: "sequential_1/lstm_1/PartitionedCall/while/merge/_30"
  input: "^Func/sequential_1/lstm_1/PartitionedCall/while/cond/_11/input_control_node/_71"
  attr {
    key: "T"
    value {
      type: DT_INT32
    }
  }
}
node {
  name: "sequential_1/lstm_1/PartitionedCall/while/cond/_11/while/Less"
  op: "Less"
  input: "Func/sequential_1/lstm_1/PartitionedCall/while/cond/_11/input/_74"
  input: "Func/sequential_1/lstm_1/PartitionedCall/while/cond/_11/input/_78"
  attr {
    key: "T"
    value {
      type: DT_INT32
    }
  }
}
node {
  name: "sequential_1/lstm_1/PartitionedCall/while/cond/_11/while/Identity"
  op: "Identity"
  input: "sequential_1/lstm_1/PartitionedCall/while/cond/_11/while/Less"
  attr {
    key: "T"
    value {
      type: DT_BOOL
    }
  }
}
node {
  name: "Func/sequential_1/lstm_1/PartitionedCall/while/cond/_11/output/_83"
  op: "Identity"
  input: "sequential_1/lstm_1/PartitionedCall/while/cond/_11/while/Identity"
  attr {
    key: "T"
    value {
      type: DT_BOOL
    }
  }
}
node {
  name: "sequential_1/lstm_1/PartitionedCall/while/LoopCond/_35"
  op: "LoopCond"
  input: "Func/sequential_1/lstm_1/PartitionedCall/while/cond/_11/output/_83"
}
node {
  name: "unused_control_flow_input_14"
  op: "Placeholder"
  attr {
    key: "dtype"
    value {
      type: DT_FLOAT
    }
  }
  attr {
    key: "shape"
    value {
      shape {
        dim {
          size: 12
        }
        dim {
          size: 128
        }
      }
    }
  }
}
node {
  name: "sequential_1/lstm_1/Identity"
  op: "Identity"
  input: "sequential_1/lstm_1/Read/ReadVariableOp"
  attr {
    key: "T"
    value {
      type: DT_FLOAT
    }
  }
}
node {
  name: "Func/sequential_1/lstm_1/PartitionedCall/input/_3"
  op: "Identity"
  input: "sequential_1/lstm_1/Identity"
  attr {
    key: "T"
    value {
      type: DT_FLOAT
    }
  }
}
node {
  name: "sequential_1/lstm_1/PartitionedCall/while/enter/_21"
  op: "Enter"
  input: "Func/sequential_1/lstm_1/PartitionedCall/input/_3"
  attr {
    key: "T"
    value {
      type: DT_FLOAT
    }
  }
  attr {
    key: "frame_name"
    value {
      s: "sequential_1/lstm_1/PartitionedCall/while"
    }
  }
  attr {
    key: "is_constant"
    value {
      b: false
    }
  }
  attr {
    key: "parallel_iterations"
    value {
      i: 32
    }
  }
}
node {
  name: "unused_control_flow_input_15"
  op: "Placeholder"
  attr {
    key: "dtype"
    value {
      type: DT_FLOAT
    }
  }
  attr {
    key: "shape"
    value {
      shape {
        unknown_rank: true
      }
    }
  }
}
node {
  name: "Func/sequential_1/lstm_1/PartitionedCall/while/body/_12/output/_104"
  op: "Identity"
  input: "Func/sequential_1/lstm_1/PartitionedCall/while/body/_12/input/_93"
  attr {
    key: "T"
    value {
      type: DT_FLOAT
    }
  }
}
node {
  name: "sequential_1/lstm_1/PartitionedCall/while/next_iteration/_68"
  op: "NextIteration"
  input: "Func/sequential_1/lstm_1/PartitionedCall/while/body/_12/output/_104"
  input: "^Func/sequential_1/lstm_1/PartitionedCall/while/body/_12/output_control_node/_107"
  attr {
    key: "T"
    value {
      type: DT_FLOAT
    }
  }
}
node {
  name: "sequential_1/lstm_1/PartitionedCall/while/merge/_32"
  op: "Merge"
  input: "sequential_1/lstm_1/PartitionedCall/while/enter/_21"
  input: "sequential_1/lstm_1/PartitionedCall/while/next_iteration/_68"
  attr {
    key: "N"
    value {
      i: 2
    }
  }
  attr {
    key: "T"
    value {
      type: DT_FLOAT
    }
  }
}
node {
  name: "sequential_1/lstm_1/PartitionedCall/while/Func/sequential_1/lstm_1/PartitionedCall/input/_3_switch/_44"
  op: "Switch"
  input: "sequential_1/lstm_1/PartitionedCall/while/merge/_32"
  input: "sequential_1/lstm_1/PartitionedCall/while/LoopCond/_35"
  attr {
    key: "T"
    value {
      type: DT_FLOAT
    }
  }
}
node {
  name: "Func/sequential_1/lstm_1/PartitionedCall/while/body/_12/input/_93"
  op: "Identity"
  input: "sequential_1/lstm_1/PartitionedCall/while/Func/sequential_1/lstm_1/PartitionedCall/input/_3_switch/_44:1"
  input: "^Func/sequential_1/lstm_1/PartitionedCall/while/body/_12/input_control_node/_84"
  attr {
    key: "T"
    value {
      type: DT_FLOAT
    }
  }
}
node {
  name: "unused_control_flow_input_16"
  op: "Placeholder"
  attr {
    key: "dtype"
    value {
      type: DT_FLOAT
    }
  }
  attr {
    key: "shape"
    value {
      shape {
        dim {
          size: 32
        }
        dim {
          size: 128
        }
      }
    }
  }
}
node {
  name: "sequential_1/lstm_1/Identity_1"
  op: "Identity"
  input: "sequential_1/lstm_1/Read_1/ReadVariableOp"
  attr {
    key: "T"
    value {
      type: DT_FLOAT
    }
  }
}
node {
  name: "Func/sequential_1/lstm_1/PartitionedCall/input/_4"
  op: "Identity"
  input: "sequential_1/lstm_1/Identity_1"
  attr {
    key: "T"
    value {
      type: DT_FLOAT
    }
  }
}
node {
  name: "sequential_1/lstm_1/PartitionedCall/while/enter/_22"
  op: "Enter"
  input: "Func/sequential_1/lstm_1/PartitionedCall/input/_4"
  attr {
    key: "T"
    value {
      type: DT_FLOAT
    }
  }
  attr {
    key: "frame_name"
    value {
      s: "sequential_1/lstm_1/PartitionedCall/while"
    }
  }
  attr {
    key: "is_constant"
    value {
      b: false
    }
  }
  attr {
    key: "parallel_iterations"
    value {
      i: 32
    }
  }
}
node {
  name: "unused_control_flow_input_17"
  op: "Placeholder"
  attr {
    key: "dtype"
    value {
      type: DT_FLOAT
    }
  }
  attr {
    key: "shape"
    value {
      shape {
        unknown_rank: true
      }
    }
  }
}
node {
  name: "Func/sequential_1/lstm_1/PartitionedCall/while/body/_12/output/_105"
  op: "Identity"
  input: "Func/sequential_1/lstm_1/PartitionedCall/while/body/_12/input/_94"
  attr {
    key: "T"
    value {
      type: DT_FLOAT
    }
  }
}
node {
  name: "sequential_1/lstm_1/PartitionedCall/while/next_iteration/_69"
  op: "NextIteration"
  input: "Func/sequential_1/lstm_1/PartitionedCall/while/body/_12/output/_105"
  input: "^Func/sequential_1/lstm_1/PartitionedCall/while/body/_12/output_control_node/_107"
  attr {
    key: "T"
    value {
      type: DT_FLOAT
    }
  }
}
node {
  name: "sequential_1/lstm_1/PartitionedCall/while/merge/_33"
  op: "Merge"
  input: "sequential_1/lstm_1/PartitionedCall/while/enter/_22"
  input: "sequential_1/lstm_1/PartitionedCall/while/next_iteration/_69"
  attr {
    key: "N"
    value {
      i: 2
    }
  }
  attr {
    key: "T"
    value {
      type: DT_FLOAT
    }
  }
}
node {
  name: "sequential_1/lstm_1/PartitionedCall/while/Func/sequential_1/lstm_1/PartitionedCall/input/_4_switch/_45"
  op: "Switch"
  input: "sequential_1/lstm_1/PartitionedCall/while/merge/_33"
  input: "sequential_1/lstm_1/PartitionedCall/while/LoopCond/_35"
  attr {
    key: "T"
    value {
      type: DT_FLOAT
    }
  }
}
node {
  name: "Func/sequential_1/lstm_1/PartitionedCall/while/body/_12/input/_94"
  op: "Identity"
  input: "sequential_1/lstm_1/PartitionedCall/while/Func/sequential_1/lstm_1/PartitionedCall/input/_4_switch/_45:1"
  input: "^Func/sequential_1/lstm_1/PartitionedCall/while/body/_12/input_control_node/_84"
  attr {
    key: "T"
    value {
      type: DT_FLOAT
    }
  }
}
node {
  name: "unused_control_flow_input_18"
  op: "Placeholder"
  attr {
    key: "dtype"
    value {
      type: DT_FLOAT
    }
  }
  attr {
    key: "shape"
    value {
      shape {
        dim {
          size: 128
        }
      }
    }
  }
}
node {
  name: "sequential_1/lstm_1/Identity_2"
  op: "Identity"
  input: "sequential_1/lstm_1/Read_2/ReadVariableOp"
  attr {
    key: "T"
    value {
      type: DT_FLOAT
    }
  }
}
node {
  name: "Func/sequential_1/lstm_1/PartitionedCall/input/_5"
  op: "Identity"
  input: "sequential_1/lstm_1/Identity_2"
  attr {
    key: "T"
    value {
      type: DT_FLOAT
    }
  }
}
node {
  name: "sequential_1/lstm_1/PartitionedCall/while/enter/_23"
  op: "Enter"
  input: "Func/sequential_1/lstm_1/PartitionedCall/input/_5"
  attr {
    key: "T"
    value {
      type: DT_FLOAT
    }
  }
  attr {
    key: "frame_name"
    value {
      s: "sequential_1/lstm_1/PartitionedCall/while"
    }
  }
  attr {
    key: "is_constant"
    value {
      b: false
    }
  }
  attr {
    key: "parallel_iterations"
    value {
      i: 32
    }
  }
}
node {
  name: "unused_control_flow_input_19"
  op: "Placeholder"
  attr {
    key: "dtype"
    value {
      type: DT_FLOAT
    }
  }
  attr {
    key: "shape"
    value {
      shape {
        unknown_rank: true
      }
    }
  }
}
node {
  name: "Func/sequential_1/lstm_1/PartitionedCall/while/body/_12/output/_106"
  op: "Identity"
  input: "Func/sequential_1/lstm_1/PartitionedCall/while/body/_12/input/_95"
  attr {
    key: "T"
    value {
      type: DT_FLOAT
    }
  }
}
node {
  name: "sequential_1/lstm_1/PartitionedCall/while/next_iteration/_70"
  op: "NextIteration"
  input: "Func/sequential_1/lstm_1/PartitionedCall/while/body/_12/output/_106"
  input: "^Func/sequential_1/lstm_1/PartitionedCall/while/body/_12/output_control_node/_107"
  attr {
    key: "T"
    value {
      type: DT_FLOAT
    }
  }
}
node {
  name: "sequential_1/lstm_1/PartitionedCall/while/merge/_34"
  op: "Merge"
  input: "sequential_1/lstm_1/PartitionedCall/while/enter/_23"
  input: "sequential_1/lstm_1/PartitionedCall/while/next_iteration/_70"
  attr {
    key: "N"
    value {
      i: 2
    }
  }
  attr {
    key: "T"
    value {
      type: DT_FLOAT
    }
  }
}
node {
  name: "sequential_1/lstm_1/PartitionedCall/while/Func/sequential_1/lstm_1/PartitionedCall/input/_5_switch/_46"
  op: "Switch"
  input: "sequential_1/lstm_1/PartitionedCall/while/merge/_34"
  input: "sequential_1/lstm_1/PartitionedCall/while/LoopCond/_35"
  attr {
    key: "T"
    value {
      type: DT_FLOAT
    }
  }
}
node {
  name: "Func/sequential_1/lstm_1/PartitionedCall/while/body/_12/input/_95"
  op: "Identity"
  input: "sequential_1/lstm_1/PartitionedCall/while/Func/sequential_1/lstm_1/PartitionedCall/input/_5_switch/_46:1"
  input: "^Func/sequential_1/lstm_1/PartitionedCall/while/body/_12/input_control_node/_84"
  attr {
    key: "T"
    value {
      type: DT_FLOAT
    }
  }
}
node {
  name: "sequential_1/lstm_1/PartitionedCall/while/loop_body_control/_47"
  op: "Identity"
  input: "sequential_1/lstm_1/PartitionedCall/while/sequential_1/lstm_1/PartitionedCall/while/loop_counter_switch/_36:1"
  attr {
    key: "T"
    value {
      type: DT_INT32
    }
  }
}
node {
  name: "Func/sequential_1/lstm_1/PartitionedCall/while/body/_12/input_control_node/_84"
  op: "NoOp"
  input: "^sequential_1/lstm_1/PartitionedCall/while/loop_body_control/_47"
}
node {
  name: "sequential_1/lstm_1/PartitionedCall/while/body/_12/while/split/split_dim"
  op: "Const"
  input: "^Func/sequential_1/lstm_1/PartitionedCall/while/body/_12/input_control_node/_84"
  attr {
    key: "dtype"
    value {
      type: DT_INT32
    }
  }
  attr {
    key: "value"
    value {
      tensor {
        dtype: DT_INT32
        tensor_shape {
        }
        int_val: 1
      }
    }
  }
}
node {
  name: "sequential_1/lstm_1/PartitionedCall/while/body/_12/while/TensorArrayV2Read/TensorListGetItem/element_shape"
  op: "Const"
  input: "^Func/sequential_1/lstm_1/PartitionedCall/while/body/_12/input_control_node/_84"
  attr {
    key: "dtype"
    value {
      type: DT_INT32
    }
  }
  attr {
    key: "value"
    value {
      tensor {
        dtype: DT_INT32
        tensor_shape {
          dim {
            size: 2
          }
        }
        tensor_content: "\377\377\377\377\014\000\000\000"
      }
    }
  }
}
node {
  name: "sequential_1/lstm_1/PartitionedCall/while/body/_12/while/TensorArrayV2Read/TensorListGetItem"
  op: "TensorListGetItem"
  input: "Func/sequential_1/lstm_1/PartitionedCall/while/body/_12/input/_92"
  input: "Func/sequential_1/lstm_1/PartitionedCall/while/body/_12/input/_87"
  input: "sequential_1/lstm_1/PartitionedCall/while/body/_12/while/TensorArrayV2Read/TensorListGetItem/element_shape"
  attr {
    key: "element_dtype"
    value {
      type: DT_FLOAT
    }
  }
}
node {
  name: "sequential_1/lstm_1/PartitionedCall/while/body/_12/while/MatMul"
  op: "MatMul"
  input: "sequential_1/lstm_1/PartitionedCall/while/body/_12/while/TensorArrayV2Read/TensorListGetItem"
  input: "Func/sequential_1/lstm_1/PartitionedCall/while/body/_12/input/_93"
  attr {
    key: "T"
    value {
      type: DT_FLOAT
    }
  }
  attr {
    key: "transpose_a"
    value {
      b: false
    }
  }
  attr {
    key: "transpose_b"
    value {
      b: false
    }
  }
}
node {
  name: "sequential_1/lstm_1/zeros/packed"
  op: "Pack"
  input: "sequential_1/lstm_1/strided_slice"
  input: "sequential_1/lstm_1/zeros/packed/1"
  attr {
    key: "N"
    value {
      i: 2
    }
  }
  attr {
    key: "T"
    value {
      type: DT_INT32
    }
  }
  attr {
    key: "axis"
    value {
      i: 0
    }
  }
}
node {
  name: "sequential_1/lstm_1/zeros"
  op: "Fill"
  input: "sequential_1/lstm_1/zeros/packed"
  input: "sequential_1/lstm_1/zeros/Const"
  attr {
    key: "T"
    value {
      type: DT_FLOAT
    }
  }
  attr {
    key: "index_type"
    value {
      type: DT_INT32
    }
  }
}
node {
  name: "Func/sequential_1/lstm_1/PartitionedCall/input/_1"
  op: "Identity"
  input: "sequential_1/lstm_1/zeros"
  attr {
    key: "T"
    value {
      type: DT_FLOAT
    }
  }
}
node {
  name: "sequential_1/lstm_1/PartitionedCall/while/enter/_17"
  op: "Enter"
  input: "Func/sequential_1/lstm_1/PartitionedCall/input/_1"
  attr {
    key: "T"
    value {
      type: DT_FLOAT
    }
  }
  attr {
    key: "frame_name"
    value {
      s: "sequential_1/lstm_1/PartitionedCall/while"
    }
  }
  attr {
    key: "is_constant"
    value {
      b: false
    }
  }
  attr {
    key: "parallel_iterations"
    value {
      i: 32
    }
  }
}
node {
  name: "unused_control_flow_input_20"
  op: "Placeholder"
  attr {
    key: "dtype"
    value {
      type: DT_FLOAT
    }
  }
  attr {
    key: "shape"
    value {
      shape {
        unknown_rank: true
      }
    }
  }
}
node {
  name: "sequential_1/lstm_1/PartitionedCall/while/body/_12/while/Identity_4"
  op: "Identity"
  input: "sequential_1/lstm_1/PartitionedCall/while/body/_12/while/mul_2"
  attr {
    key: "T"
    value {
      type: DT_FLOAT
    }
  }
}
node {
  name: "Func/sequential_1/lstm_1/PartitionedCall/while/body/_12/output/_100"
  op: "Identity"
  input: "sequential_1/lstm_1/PartitionedCall/while/body/_12/while/Identity_4"
  attr {
    key: "T"
    value {
      type: DT_FLOAT
    }
  }
}
node {
  name: "sequential_1/lstm_1/PartitionedCall/while/next_iteration/_64"
  op: "NextIteration"
  input: "Func/sequential_1/lstm_1/PartitionedCall/while/body/_12/output/_100"
  input: "^Func/sequential_1/lstm_1/PartitionedCall/while/body/_12/output_control_node/_107"
  attr {
    key: "T"
    value {
      type: DT_FLOAT
    }
  }
}
node {
  name: "sequential_1/lstm_1/PartitionedCall/while/merge/_28"
  op: "Merge"
  input: "sequential_1/lstm_1/PartitionedCall/while/enter/_17"
  input: "sequential_1/lstm_1/PartitionedCall/while/next_iteration/_64"
  attr {
    key: "N"
    value {
      i: 2
    }
  }
  attr {
    key: "T"
    value {
      type: DT_FLOAT
    }
  }
}
node {
  name: "sequential_1/lstm_1/PartitionedCall/while/Func/sequential_1/lstm_1/PartitionedCall/input/_1_switch/_40"
  op: "Switch"
  input: "sequential_1/lstm_1/PartitionedCall/while/merge/_28"
  input: "sequential_1/lstm_1/PartitionedCall/while/LoopCond/_35"
  attr {
    key: "T"
    value {
      type: DT_FLOAT
    }
  }
}
node {
  name: "Func/sequential_1/lstm_1/PartitionedCall/while/body/_12/input/_89"
  op: "Identity"
  input: "sequential_1/lstm_1/PartitionedCall/while/Func/sequential_1/lstm_1/PartitionedCall/input/_1_switch/_40:1"
  input: "^Func/sequential_1/lstm_1/PartitionedCall/while/body/_12/input_control_node/_84"
  attr {
    key: "T"
    value {
      type: DT_FLOAT
    }
  }
}
node {
  name: "sequential_1/lstm_1/PartitionedCall/while/body/_12/while/MatMul_1"
  op: "MatMul"
  input: "Func/sequential_1/lstm_1/PartitionedCall/while/body/_12/input/_89"
  input: "Func/sequential_1/lstm_1/PartitionedCall/while/body/_12/input/_94"
  attr {
    key: "T"
    value {
      type: DT_FLOAT
    }
  }
  attr {
    key: "transpose_a"
    value {
      b: false
    }
  }
  attr {
    key: "transpose_b"
    value {
      b: false
    }
  }
}
node {
  name: "sequential_1/lstm_1/PartitionedCall/while/body/_12/while/add"
  op: "AddV2"
  input: "sequential_1/lstm_1/PartitionedCall/while/body/_12/while/MatMul"
  input: "sequential_1/lstm_1/PartitionedCall/while/body/_12/while/MatMul_1"
  attr {
    key: "T"
    value {
      type: DT_FLOAT
    }
  }
}
node {
  name: "sequential_1/lstm_1/PartitionedCall/while/body/_12/while/BiasAdd"
  op: "BiasAdd"
  input: "sequential_1/lstm_1/PartitionedCall/while/body/_12/while/add"
  input: "Func/sequential_1/lstm_1/PartitionedCall/while/body/_12/input/_95"
  attr {
    key: "T"
    value {
      type: DT_FLOAT
    }
  }
  attr {
    key: "data_format"
    value {
      s: "NHWC"
    }
  }
}
node {
  name: "sequential_1/lstm_1/PartitionedCall/while/body/_12/while/split"
  op: "Split"
  input: "sequential_1/lstm_1/PartitionedCall/while/body/_12/while/split/split_dim"
  input: "sequential_1/lstm_1/PartitionedCall/while/body/_12/while/BiasAdd"
  attr {
    key: "T"
    value {
      type: DT_FLOAT
    }
  }
  attr {
    key: "num_split"
    value {
      i: 4
    }
  }
}
node {
  name: "sequential_1/lstm_1/PartitionedCall/while/body/_12/while/Sigmoid_2"
  op: "Sigmoid"
  input: "sequential_1/lstm_1/PartitionedCall/while/body/_12/while/split:3"
  attr {
    key: "T"
    value {
      type: DT_FLOAT
    }
  }
}
node {
  name: "sequential_1/lstm_1/PartitionedCall/while/body/_12/while/Tanh_1"
  op: "Tanh"
  input: "sequential_1/lstm_1/PartitionedCall/while/body/_12/while/add_1"
  attr {
    key: "T"
    value {
      type: DT_FLOAT
    }
  }
}
node {
  name: "sequential_1/lstm_1/PartitionedCall/while/body/_12/while/mul_2"
  op: "Mul"
  input: "sequential_1/lstm_1/PartitionedCall/while/body/_12/while/Sigmoid_2"
  input: "sequential_1/lstm_1/PartitionedCall/while/body/_12/while/Tanh_1"
  attr {
    key: "T"
    value {
      type: DT_FLOAT
    }
  }
}
node {
  name: "Func/sequential_1/lstm_1/PartitionedCall/while/body/_12/output_control_node/_107"
  op: "NoOp"
  input: "^Func/sequential_1/lstm_1/PartitionedCall/while/body/_12/input_control_node/_84"
}
node {
  name: "sequential_1/lstm_1/PartitionedCall/TensorArrayV2_1"
  op: "TensorListReserve"
  input: "sequential_1/lstm_1/PartitionedCall/TensorArrayV2_1/element_shape"
  input: "sequential_1/lstm_1/PartitionedCall/strided_slice"
  attr {
    key: "element_dtype"
    value {
      type: DT_FLOAT
    }
  }
  attr {
    key: "shape_type"
    value {
      type: DT_INT32
    }
  }
  experimental_type {
    type_id: TFT_PRODUCT
    args {
      type_id: TFT_ARRAY
      args {
        type_id: TFT_TENSOR
        args {
          type_id: TFT_FLOAT
        }
      }
    }
  }
}
node {
  name: "sequential_1/lstm_1/PartitionedCall/while/enter/_16"
  op: "Enter"
  input: "sequential_1/lstm_1/PartitionedCall/TensorArrayV2_1"
  attr {
    key: "T"
    value {
      type: DT_VARIANT
    }
  }
  attr {
    key: "frame_name"
    value {
      s: "sequential_1/lstm_1/PartitionedCall/while"
    }
  }
  attr {
    key: "is_constant"
    value {
      b: false
    }
  }
  attr {
    key: "parallel_iterations"
    value {
      i: 32
    }
  }
}
node {
  name: "unused_control_flow_input_21"
  op: "Placeholder"
  attr {
    key: "dtype"
    value {
      type: DT_VARIANT
    }
  }
  attr {
    key: "shape"
    value {
      shape {
        unknown_rank: true
      }
    }
  }
}
node {
  name: "Func/sequential_1/lstm_1/PartitionedCall/while/body/_12/input/_88"
  op: "Identity"
  input: "sequential_1/lstm_1/PartitionedCall/while/sequential_1/lstm_1/PartitionedCall/TensorArrayV2_1_switch/_39:1"
  input: "^Func/sequential_1/lstm_1/PartitionedCall/while/body/_12/input_control_node/_84"
  attr {
    key: "T"
    value {
      type: DT_VARIANT
    }
  }
}
node {
  name: "sequential_1/lstm_1/PartitionedCall/while/body/_12/while/TensorArrayV2Write/TensorListSetItem"
  op: "TensorListSetItem"
  input: "Func/sequential_1/lstm_1/PartitionedCall/while/body/_12/input/_88"
  input: "Func/sequential_1/lstm_1/PartitionedCall/while/body/_12/input/_87"
  input: "sequential_1/lstm_1/PartitionedCall/while/body/_12/while/mul_2"
  attr {
    key: "element_dtype"
    value {
      type: DT_FLOAT
    }
  }
  experimental_type {
    type_id: TFT_PRODUCT
    args {
      type_id: TFT_ARRAY
      args {
        type_id: TFT_TENSOR
        args {
          type_id: TFT_FLOAT
        }
      }
    }
  }
}
node {
  name: "sequential_1/lstm_1/PartitionedCall/while/body/_12/while/Identity_3"
  op: "Identity"
  input: "sequential_1/lstm_1/PartitionedCall/while/body/_12/while/TensorArrayV2Write/TensorListSetItem"
  attr {
    key: "T"
    value {
      type: DT_VARIANT
    }
  }
}
node {
  name: "Func/sequential_1/lstm_1/PartitionedCall/while/body/_12/output/_99"
  op: "Identity"
  input: "sequential_1/lstm_1/PartitionedCall/while/body/_12/while/Identity_3"
  attr {
    key: "T"
    value {
      type: DT_VARIANT
    }
  }
}
node {
  name: "sequential_1/lstm_1/PartitionedCall/while/next_iteration/_63"
  op: "NextIteration"
  input: "Func/sequential_1/lstm_1/PartitionedCall/while/body/_12/output/_99"
  input: "^Func/sequential_1/lstm_1/PartitionedCall/while/body/_12/output_control_node/_107"
  attr {
    key: "T"
    value {
      type: DT_VARIANT
    }
  }
}
node {
  name: "sequential_1/lstm_1/PartitionedCall/while/merge/_27"
  op: "Merge"
  input: "sequential_1/lstm_1/PartitionedCall/while/enter/_16"
  input: "sequential_1/lstm_1/PartitionedCall/while/next_iteration/_63"
  attr {
    key: "N"
    value {
      i: 2
    }
  }
  attr {
    key: "T"
    value {
      type: DT_VARIANT
    }
  }
}
node {
  name: "sequential_1/lstm_1/PartitionedCall/while/sequential_1/lstm_1/PartitionedCall/TensorArrayV2_1_switch/_39"
  op: "Switch"
  input: "sequential_1/lstm_1/PartitionedCall/while/merge/_27"
  input: "sequential_1/lstm_1/PartitionedCall/while/LoopCond/_35"
  attr {
    key: "T"
    value {
      type: DT_VARIANT
    }
  }
}
node {
  name: "sequential_1/lstm_1/Read_2/ReadVariableOp"
  op: "Identity"
  input: "sequential_1/lstm_1/Read_2/ReadVariableOp/resource"
  attr {
    key: "T"
    value {
      type: DT_FLOAT
    }
  }
}
node {
  name: "sequential_1/lstm_1/Read_1/ReadVariableOp"
  op: "Identity"
  input: "sequential_1/lstm_1/Read_1/ReadVariableOp/resource"
  attr {
    key: "T"
    value {
      type: DT_FLOAT
    }
  }
}
node {
  name: "sequential_1/lstm_1/Read/ReadVariableOp"
  op: "Identity"
  input: "sequential_1/lstm_1/Read/ReadVariableOp/resource"
  attr {
    key: "T"
    value {
      type: DT_FLOAT
    }
  }
}
node {
  name: "sequential_1/lstm_1/PartitionedCall/while/exit/_51"
  op: "Exit"
  input: "sequential_1/lstm_1/PartitionedCall/while/sequential_1/lstm_1/PartitionedCall/TensorArrayV2_1_switch/_39"
  attr {
    key: "T"
    value {
      type: DT_VARIANT
    }
  }
}
node {
  name: "sequential_1/lstm_1/PartitionedCall/TensorArrayV2Stack/TensorListStack"
  op: "TensorListStack"
  input: "sequential_1/lstm_1/PartitionedCall/while/exit/_51"
  input: "sequential_1/lstm_1/PartitionedCall/TensorArrayV2Stack/TensorListStack/element_shape"
  attr {
    key: "element_dtype"
    value {
      type: DT_FLOAT
    }
  }
  attr {
    key: "num_elements"
    value {
      i: -1
    }
  }
}
node {
  name: "sequential_1/lstm_1/PartitionedCall/transpose_1"
  op: "Transpose"
  input: "sequential_1/lstm_1/PartitionedCall/TensorArrayV2Stack/TensorListStack"
  input: "sequential_1/lstm_1/PartitionedCall/transpose_1/perm"
  attr {
    key: "T"
    value {
      type: DT_FLOAT
    }
  }
  attr {
    key: "Tperm"
    value {
      type: DT_INT32
    }
  }
}
node {
  name: "sequential_1/lstm_1/PartitionedCall/Identity_1"
  op: "Identity"
  input: "sequential_1/lstm_1/PartitionedCall/transpose_1"
  attr {
    key: "T"
    value {
      type: DT_FLOAT
    }
  }
}
node {
  name: "Func/sequential_1/lstm_1/PartitionedCall/output/_7"
  op: "Identity"
  input: "sequential_1/lstm_1/PartitionedCall/Identity_1"
  attr {
    key: "T"
    value {
      type: DT_FLOAT
    }
  }
}
node {
  name: "sequential_1/flatten/Reshape"
  op: "Reshape"
  input: "Func/sequential_1/lstm_1/PartitionedCall/output/_7"
  input: "sequential_1/flatten/Const"
  attr {
    key: "T"
    value {
      type: DT_FLOAT
    }
  }
  attr {
    key: "Tshape"
    value {
      type: DT_INT32
    }
  }
}
node {
  name: "sequential_1/dense_1/MatMul/ReadVariableOp"
  op: "Identity"
  input: "sequential_1/dense_1/MatMul/ReadVariableOp/resource"
  attr {
    key: "T"
    value {
      type: DT_FLOAT
    }
  }
}
node {
  name: "sequential_1/dense_1/MatMul"
  op: "MatMul"
  input: "sequential_1/flatten/Reshape"
  input: "sequential_1/dense_1/MatMul/ReadVariableOp"
  attr {
    key: "T"
    value {
      type: DT_FLOAT
    }
  }
  attr {
    key: "transpose_a"
    value {
      b: false
    }
  }
  attr {
    key: "transpose_b"
    value {
      b: false
    }
  }
}
node {
  name: "sequential_1/dense_1/BiasAdd/ReadVariableOp"
  op: "Identity"
  input: "sequential_1/dense_1/BiasAdd/ReadVariableOp/resource"
  attr {
    key: "T"
    value {
      type: DT_FLOAT
    }
  }
}
node {
  name: "sequential_1/dense_1/BiasAdd"
  op: "BiasAdd"
  input: "sequential_1/dense_1/MatMul"
  input: "sequential_1/dense_1/BiasAdd/ReadVariableOp"
  attr {
    key: "T"
    value {
      type: DT_FLOAT
    }
  }
  attr {
    key: "data_format"
    value {
      s: "NHWC"
    }
  }
}
node {
  name: "sequential_1/dense_1/Relu"
  op: "Relu"
  input: "sequential_1/dense_1/BiasAdd"
  attr {
    key: "T"
    value {
      type: DT_FLOAT
    }
  }
}
node {
  name: "sequential_1/Output/MatMul/ReadVariableOp"
  op: "Identity"
  input: "sequential_1/Output/MatMul/ReadVariableOp/resource"
  attr {
    key: "T"
    value {
      type: DT_FLOAT
    }
  }
}
node {
  name: "sequential_1/Output/MatMul"
  op: "MatMul"
  input: "sequential_1/dense_1/Relu"
  input: "sequential_1/Output/MatMul/ReadVariableOp"
  attr {
    key: "T"
    value {
      type: DT_FLOAT
    }
  }
  attr {
    key: "transpose_a"
    value {
      b: false
    }
  }
  attr {
    key: "transpose_b"
    value {
      b: false
    }
  }
}
node {
  name: "sequential_1/Output/BiasAdd/ReadVariableOp"
  op: "Identity"
  input: "sequential_1/Output/BiasAdd/ReadVariableOp/resource"
  attr {
    key: "T"
    value {
      type: DT_FLOAT
    }
  }
}
node {
  name: "sequential_1/Output/BiasAdd"
  op: "BiasAdd"
  input: "sequential_1/Output/MatMul"
  input: "sequential_1/Output/BiasAdd/ReadVariableOp"
  attr {
    key: "T"
    value {
      type: DT_FLOAT
    }
  }
  attr {
    key: "data_format"
    value {
      s: "NHWC"
    }
  }
}
node {
  name: "sequential_1/Output/Softmax"
  op: "Softmax"
  input: "sequential_1/Output/BiasAdd"
  attr {
    key: "T"
    value {
      type: DT_FLOAT
    }
  }
}
node {
  name: "NoOp"
  op: "NoOp"
  input: "^sequential_1/Output/BiasAdd/ReadVariableOp"
  input: "^sequential_1/Output/MatMul/ReadVariableOp"
  input: "^sequential_1/dense_1/BiasAdd/ReadVariableOp"
  input: "^sequential_1/dense_1/MatMul/ReadVariableOp"
  input: "^sequential_1/lstm_1/Read/ReadVariableOp"
  input: "^sequential_1/lstm_1/Read_1/ReadVariableOp"
  input: "^sequential_1/lstm_1/Read_2/ReadVariableOp"
  attr {
    key: "_acd_function_control_output"
    value {
      b: true
    }
  }
}
node {
  name: "Identity"
  op: "Identity"
  input: "sequential_1/Output/Softmax"
  input: "^NoOp"
  attr {
    key: "T"
    value {
      type: DT_FLOAT
    }
  }
}
versions {
  producer: 1205
}
